models/discharge/Hasil eksperimen Progo ML 1 best.pth (torch, 350386 bytes, 20 tensors)

input_layer.weight f4 [128, 72]
000000 f8 18 6f be 53 e7 4d bd ca 82 22 bd 23 79 8c bc
       -0.23349369 -0.050269436 -0.03967551 -0.017147606
000010 d7 aa d1 3d 08 ad 90 3d 71 fc 1a 3e 73 da 2d 3d
       0.10237663 0.07064253 0.15135361 0.042444658
000020 35 1c cd bb 1b a9 e4 bd 37 f0 98 be 18 b1 97 be
       -0.006259466 -0.11165067 -0.2987077 -0.296273
000030 36 db ac bd e1 72 5c bd a4 cd d3 3d 07 13 57 bd
       -0.08440249 -0.053820495 0.10341957 -0.05250838
000040 47 51 82 bd 74 14 1a be 26 95 17 be 90 be 1c be
       -0.06363159 -0.15046865 -0.1480299 -0.15307069
000050 21 42 86 3d b1 bc 86 bd ea fc 35 bd 33 af 60 3d
       0.06555582 -0.06578959 -0.04443065 0.054854583
000060 aa a5 40 3d 95 9b 12 3e 9b 7b 45 3e 68 47 5e 3e
       0.04703299 0.14317162 0.19285433 0.21706927
000070 37 48 fa 3d c5 3b 93 3e ee 04 ae 3e eb d1 2b 3e
       0.12220805 0.28756538 0.33988136 0.16779296
000080 27 35 78 3e 92 fb 0c 3e e7 c6 5f 3e d1 3e ef 3d
       0.24239026 0.13767841 0.21853219 0.11681903
000090 48 4e 55 3d 39 f2 83 3d 39 ba a5 3d 5b 26 8d 3d
       0.052076608 0.06442685 0.0809216 0.06892081
0000a0 3f d3 6c bc 50 c4 ee 3d f8 f3 fc bd 14 3b 54 be
       -0.014454662 0.116585374 -0.12351221 -0.20725662
0000b0 69 70 c6 be 71 47 35 bf 51 ef 92 bf 40 57 95 bf
       -0.38757637 -0.70812136 -1.1479284 -1.1667252
0000c0 2f fc 81 bf aa ec 12 bf 97 f4 1b bf aa 0a 91 be
       -1.0155085 -0.5739237 -0.6092009 -0.2832845
0000d0 b8 e7 e7 be c8 1c c0 bd b4 9f 1e be 7b 90 39 3d
       -0.45293975 -0.093804896 -0.1549061 0.045303803
0000e0 0f 6e 13 be 16 9b 8d 3e f0 cd e4 3d 71 1d c3 3e
       -0.14397453 0.27657384 0.11172092 0.381084
0000f0 7e 78 25 3e b7 5c 82 bd 0f 51 41 be 0d 9a 2e be
       0.16159245 -0.0636534 -0.18878578 -0.17050953
000100 af b6 4b 3e d7 db 24 3e bb be 42 3e bc 16 15 3e
       0.19893907 0.16099487 0.1901807 0.14559454
000110 8b e1 49 bc 75 32 52 3e 1f 41 66 3e ff c6 9c 3e
       -0.01232184 0.2052706 0.22485779 0.30620572
000120 c9 18 93 3d fa 63 5e 3e c9 23 cb 3d 9b 8f b7 bd
       0.07182462 0.21717826 0.09918935 -0.089629374
000130 82 3a b6 3d d0 ed 6a 3e bf 47 54 be e5 c4 53 bf
       0.08897878 0.22942281 -0.20730494 -0.8272231
000140 bf 8a 51 bf fb dc 43 bf 1d f1 03 3e c0 d8 e9 bd
       -0.81852335 -0.76509064 0.12884946 -0.11418295
000150 75 dd c1 3e 03 31 30 bd 2a 8f 41 be cb 85 36 3e
       0.3786427 -0.04301549 -0.18902269 0.17824475
000160 81 40 97 3d 43 19 29 3e 00 99 c8 3d 6f 2d 4d bd
       0.0738535 0.16513543 0.097948074 -0.050092157
000170 6d f6 af bc 41 0b c4 bd 48 f9 a9 3d ae 1c 87 be
       -0.02147981 -0.09572459 0.082995 -0.26389068
000180 e2 f5 02 bf b0 14 37 bf 2c 9c 61 bf a2 21 3d bf
       -0.5115644 -0.7151594 -0.88128924 -0.73879445
000190 32 19 5e bf 44 16 25 bf 0c fa 00 bf 26 f8 15 bf
       -0.86757195 -0.644871 -0.5038154 -0.5858177
0001a0 97 04 2d bf 35 4b 5d bf a9 d4 80 be 2e ee a1 be
       -0.6758513 -0.8644288 -0.25162247 -0.3162703
0001b0 51 da 0b bf 52 7d 8d be 88 8e fc bc 3e 33 bb bd
       -0.5463 -0.27634674 -0.030829683 -0.09140633
0001c0 a8 cc 8d b9 11 68 73 3e ab d8 81 3e b3 1f cd be
       -0.00027046097 0.23770167 0.25360617 -0.40063247
0001d0 56 f5 66 bf 8e 39 60 bf e4 be 50 bf 7e 61 65 bf
       -0.902181 -0.8758782 -0.81541276 -0.89601886
0001e0 18 67 2d bf 45 ea 08 bf eb 96 8d bc bd 7d a5 3d
       -0.67735434 -0.53482467 -0.017283877 0.08080623
0001f0 69 55 8f 3e 49 fa b6 3e 95 44 79 3e 28 8e cf 3e
       0.2799485 0.35737827 0.24342568 0.40538144
000200 ad 99 44 3e 16 f9 3d 3e 53 41 5e 3e f8 73 0b 3e
       0.19199248 0.1855205 0.21704607 0.13618457
000210 7f 29 93 3e de ea 1a 3e 58 22 48 3e 52 00 40 3b
       0.28742597 0.15128657 0.19544351 0.0029297066
000220 0a 42 9b 3e 2e de 1d 3e 90 1f 33 3c 9d 28 1d bd
       0.3032382 0.15416786 0.010932818 -0.03836881
000230 86 86 f3 3d bf 42 96 3c 96 f1 df 3c 3a 5b 1c 3f
       0.11890893 0.018342374 0.027336877 0.610767
000240 af fb 0f 3f fd b3 22 3e 47 a7 80 bd 05 6f 61 be
       0.56243414 0.15888973 -0.062819056 -0.22015007
000250 0a 29 84 bd 25 17 e7 3d 8f 0a 86 3d 74 81 89 bd
       -0.0645314 0.11283711 0.06544983 -0.06714144
000260 47 4b 06 3e 49 5e 13 3e 0a de 54 3e bf 2d 5e 3e
       0.13114654 0.14391436 0.20787826 0.21697138
000270 14 89 5f 3e 4e d5 15 be 39 f0 4e bd 68 c8 87 be
       0.21829635 -0.1463215 -0.050522063 -0.26520085
000280 b7 7c 7d be 05 37 29 bc 9e aa 78 3e cd d1 60 3e
       -0.24754606 -0.010328059 0.24283835 0.21955033
000290 c0 38 1b 3e 01 66 b9 3d 1e f8 78 be 7c 75 08 3e
       0.15158367 0.09052659 -0.24313399 0.13326067
0002a0 d9 36 8a be bf 9e 00 bf 62 80 9f be 21 52 09 bf
       -0.2699497 -0.5024223 -0.31152636 -0.53640944
0002b0 78 bf 36 bf a2 09 15 3e 87 39 2a 3e ee 6c 18 3e
       -0.7138591 0.14554456 0.16623507 0.14885303
0002c0 d4 fe af be 2f da 59 be a2 e5 a4 3c 7f 49 a2 bd
       -0.34374106 -0.21274637 0.020129029 -0.079241745
0002d0 e3 a8 ad bc eb 52 56 3e c8 72 e2 3d f3 10 4a 3e
       -0.021198696 0.20930068 0.11057049 0.19733028
0002e0 df 35 33 3c d5 d9 b9 bc 54 05 0a bd 1f 2a 96 be
       0.010938137 -0.022686878 -0.033696488 -0.2932901
0002f0 3a ad 35 bb 59 ce 16 3e 64 15 b4 3e 3a 46 67 3e
       -0.002772166 0.14727153 0.3517257 0.22585383
000300 6f b8 2b be 32 8f 22 3d 7e f3 88 bd ba ef 0a 3e
       -0.16769575 0.039687343 -0.066870674 0.13568011
000310 ad 76 80 be b3 03 0c bf 6d 06 e6 bd d2 c4 82 3e
       -0.25090542 -0.54693145 -0.11231694 0.25540787
000320 22 04 87 3e 81 62 1b 3e 26 68 0e 3e 27 e7 40 3d
       0.2637034 0.15174295 0.13906917 0.047095444
000330 82 fd b5 3c 5e 9e 2d 3e de cb 52 3e ac 62 52 3e
       0.022215609 0.16954944 0.20585582 0.20545453
000340 99 b3 1c 3e aa c1 82 bd 17 69 9e be bc c8 67 bd
       0.15302886 -0.06384595 -0.30939552 -0.05658792
000350 59 e2 03 3e 3e 46 3c 3e 64 14 6e be 49 3b e0 bc
       0.12879314 0.1838617 -0.23249966 -0.02737202
000360 86 1d a9 bf 1c 49 f1 bf 69 71 83 bf f1 90 f8 bf
       -1.3212135 -1.8850436 -1.0268985 -1.9419233
000370 df 65 e0 bf ce 1b 75 bf fb 14 d7 be 3e 78 93 3c
       -1.7531089 -0.9574555 -0.42008194 0.018001672
000380 f6 2e b7 3e 87 1a d0 bd 68 fb 28 3d c8 67 c4 3d
       0.35778016 -0.1016131 0.041255385 0.09590107
000390 c0 75 e0 3d 2d bd df 3c 18 8e 89 bd 84 98 75 bf
       0.10959959 0.027311886 -0.06716555 -0.95935845
0003a0 6d 07 92 bf 48 d3 e8 be 9d 9c b8 3b d1 a4 c7 3c
       -1.1408516 -0.45473695 0.005633904 0.024370583
0003b0 f6 56 1a bd 27 15 80 3d ef 24 24 be ff b8 92 be
       -0.03768059 0.062540345 -0.16029714 -0.28656766
0003c0 b4 c1 d9 3d fa 4e 55 be b8 cb f8 bd 35 60 38 3e
       0.10632649 -0.20830908 -0.12148231 0.1800545
0003d0 9e 3f d5 bd 78 51 d8 bd 32 fd a2 3e 8a ca ae 3d
       -0.10412525 -0.10562414 0.31833798 0.08534725
0003e0 14 f7 51 3e f1 de 6b 3d 66 25 bf 3d dc e3 95 3d
       0.20504409 0.05758566 0.09333305 0.07318851
0003f0 84 09 c5 3d 43 4d bb 3d ed 1c a1 3e 0a 45 c0 3d
       0.096209556 0.09145596 0.3146738 0.09388168

input_layer.bias f4 [128]
000000 8e ee 1c c0 2a 5e 9b 3e 74 34 e9 bf 5f 06 36 3e
       -2.4520602 0.3034528 -1.8219132 0.17775868
000010 79 fe 48 be 64 ea 1b 3e e0 38 56 3d 04 0c d2 3d
       -0.19628324 0.15226132 0.052300334 0.10256198
000020 b9 c0 27 c0 fc 8c ca 3d 81 6a a0 3d 74 ad 88 3e
       -2.6211379 0.09890172 0.07832814 0.26694834
000030 9a ff 96 3d 80 d4 5d c0 75 49 90 3d 18 ed 34 3e
       0.07372971 -3.466095 0.07045261 0.17668569
000040 d4 be 0e 3d 0d d5 2b 3f a3 ad 0b c0 4d be f0 be
       0.034849957 0.67121965 -2.182473 -0.47020188
000050 56 5b 11 be ab b2 49 3e 29 93 09 c0 5b 5c 12 3e
       -0.14194998 0.19697063 -2.149607 0.14293043
000060 6e 6c 66 be 97 c8 27 bf 13 f2 80 be ba dc 13 3f
       -0.225023 -0.6554045 -0.25184688 0.57758677
000070 c4 82 1a be b1 74 29 3e a9 94 19 3e de c0 24 3e
       -0.15088946 0.1654842 0.14998116 0.16089198
000080 c4 92 12 3f 44 06 39 3d 05 51 5b 3d b4 a2 38 3d
       0.57255197 0.04517199 0.053544063 0.04507704
000090 77 cb 33 3e eb f6 3d c0 36 24 69 3e f0 5b 65 3d
       0.17558084 -2.9681957 0.2276772 0.05599588
0000a0 c8 3a 66 bf 27 21 53 3d d5 f9 ba bd 3c ed 24 c0
       -0.89933443 0.05154529 -0.09129683 -2.5769796
0000b0 42 af bf 3e a8 f3 b3 bf b1 24 0c c0 f0 64 a4 bf
       0.374384 -1.4058733 -2.1897395 -1.2843304
0000c0 99 bd 9b bf a2 ce 21 3e ef 73 84 3f 87 bb fd 3e
       -1.2167236 0.1580148 1.034788 0.49557135
0000d0 3e 85 0c 3e 72 af 63 3d ae 1f 7b bd 97 c1 76 bd
       0.13722703 0.05558724 -0.06130951 -0.060243215
0000e0 37 40 35 3e e6 c0 ee 3e ce 30 30 3e e8 65 83 3c
       0.17700277 0.46631545 0.17206118 0.016039804
0000f0 19 99 53 bd c0 fb 1a 3f 1b 6b 9d 3e 6b 9a 02 c0
       -0.051659677 0.6054039 0.30745777 -2.040675
000100 87 c5 9b bd 8e f1 81 3e b0 ee 71 be 62 4a 07 3f
       -0.07606035 0.25379604 -0.23626208 0.52847874
000110 92 44 2b c0 6e f1 9e bf cf 1e b0 bf a5 3d 92 3c
       -2.6760602 -1.2417428 -1.3759402 0.01785166
000120 d2 ba c6 bd 67 c7 aa 3e 35 85 d1 be 70 a1 29 3e
       -0.09703602 0.33355257 -0.4092194 0.1656549
000130 43 6a 5e 3d 36 20 f6 bf 61 9a f6 bf c2 29 1b 3c
       0.054300558 -1.922858 -1.9265863 0.009470405
000140 d0 b3 9c 3e a7 23 24 3c 04 61 81 3e 5d 7e 24 c0
       0.30605936 0.010018266 0.2526933 -2.5702126
000150 c1 6a 82 3d 07 96 a4 3d 6a dd 0d be b1 c3 ed 3e
       0.06368018 0.08036428 -0.13853994 0.46438363
000160 15 c8 ae bf d2 49 c5 3b 3e aa 57 3e a9 70 49 3c
       -1.365481 0.006020763 0.21061036 0.012294927
000170 d7 03 51 3e cc fb 19 c0 3c 2f d2 3e e0 85 40 bf
       0.20411621 -2.4059935 0.41051662 -0.7520428
000180 cc c9 a9 3f 26 58 36 bd 25 d7 d2 3c 15 ea 6b 3d
       1.3264709 -0.04451766 0.025737355 0.057596285
000190 99 f5 4f 3f ba 20 25 3e 04 80 b8 bd 87 63 06 c0
       0.8123413 0.16125765 -0.09008792 -2.0998247
0001a0 34 c2 20 be 10 45 09 3d a8 40 51 3e 2b 31 44 bf
       -0.15699083 0.03351313 0.2043482 -0.76637524
0001b0 d3 7d c4 3d 69 42 38 3d 87 7d b2 3c 50 6d 30 3e
       0.095943116 0.04498521 0.021788372 0.172292
0001c0 b7 66 c1 3d d2 ca 1a 3e 85 4c d2 3d ad 81 ba bf
       0.094434194 0.15116432 0.10268501 -1.4570824
0001d0 a4 e3 57 3e f7 24 2b 3e 67 24 22 3d 17 71 4a 3e
       0.21082932 0.1671332 0.039585497 0.19769703
0001e0 23 fc 03 c0 9a 39 7d 3d 86 e5 c7 3d 16 d6 a1 be
       -2.0622642 0.06182251 0.09760575 -0.31608647
0001f0 30 96 17 bd af 66 40 3e 3c 6c b2 3d ae 09 07 bd
       -0.037008464 0.1878917 0.0871205 -0.032968216

hidden_layers.0.weight f4 [128, 128]
000000 13 43 92 3d 43 4d b1 3d 72 9c 18 bf c7 ab 83 3c
       0.071417 0.08657315 -0.59613717 0.01607312
000010 8e 0f 36 bd 74 72 c8 3d 38 60 69 be 5e cb 01 3d
       -0.044448428 0.09787455 -0.22790611 0.031688087
000020 a3 b6 9f be 4f 8f 4c 3c 04 7c be 3e f5 32 12 be
       -0.31194028 0.012485339 0.3720399 -0.14277251
000030 da f3 0a 3b f6 95 32 3f c0 67 89 3e dc 22 5a bf
       0.0021202476 0.6976007 0.26836967 -0.8520944
000040 2d 7a 25 3e 58 7d a0 be 2a 6d 8d be c3 ce 0c be
       0.16159888 -0.3134563 -0.27622348 -0.13750748
000050 e8 1e 91 bd 1c 51 b9 be 9a 58 08 3f ea ae f5 bc
       -0.07085973 -0.36194694 0.53260195 -0.029990632
000060 ca cb ab 3e 69 63 44 3d 4c c7 50 3e f9 0f fb 3d
       0.33553916 0.047946367 0.20388526 0.12258906
000070 c4 58 f1 3d 5e 0b 2c be 6e 6c e9 3e 59 5a 35 3f
       0.11784509 -0.16801211 0.45590538 0.70840985
000080 49 64 8f 3d 2b ee e5 bc 41 ac 41 bd a8 08 12 be
       0.0700155 -0.028067669 -0.047283415 -0.14261115
000090 a9 bc 3f bd 4c 50 fb 3d 7f ca 61 be c9 4f 9e bd
       -0.04681078 0.12271175 -0.22049902 -0.077300616
0000a0 58 78 e8 3e bb e0 e7 3d 38 b1 a1 3e 9b cb 33 3e
       0.45404315 0.11322161 0.3158052 0.17558138
0000b0 1e b5 fa bd f3 4e c4 be 6f 47 c2 3e 7f 9f 17 3e
       -0.122415766 -0.38341483 0.37945125 0.14806937
0000c0 4f e1 3f be 15 be 15 be 23 ce 39 bd 0d 6b 13 bf
       -0.18738292 -0.14623292 -0.045362603 -0.5758522
0000d0 2f 20 b4 bd e3 0b 49 bf a3 ac 07 3f 7e 18 a8 3e
       -0.08795201 -0.7853376 0.529978 0.32831186
0000e0 c2 d7 d5 be a1 94 5f bd 53 a1 fd 3d d7 a8 30 be
       -0.41766173 -0.054585103 0.12384286 -0.17251907
0000f0 13 75 48 3e 9c 60 82 3e e2 8e 21 be 71 5c f1 3d
       0.1957591 0.25464332 -0.15777162 0.1178521
000100 96 c8 1d 3c d0 7b c4 3d be 5e c3 3e 86 5a 81 3e
       0.009630343 0.09593928 0.3815822 0.25264376
000110 8e ca 8f 3c 5e 79 91 3e 41 1d 00 bf b9 a5 11 3f
       0.01755264 0.28412908 -0.5004464 0.568935
000120 b1 62 25 be 8a 56 6a 3e e3 81 49 3e 83 d3 0c 3e
       -0.16150929 0.22884575 0.19678454 0.1375256
000130 a5 d0 47 be 5c c2 31 3c 1b f1 a2 bd 45 19 98 3c
       -0.19513185 0.010849562 -0.079561435 0.018566737
000140 a1 6f c4 3e 0f 8b 58 3e dc af 66 3d e6 71 eb 3d
       0.38366416 0.21146797 0.056320056 0.11496334
000150 a3 23 e1 3e d8 8a 38 bf ef 8a 84 3d 75 83 80 3e
       0.439725 -0.7208686 0.06471812 0.25100294
000160 8c ef 83 bd 7a c7 3c 3e c3 49 91 3d ba 82 63 be
       -0.06442174 0.1843547 0.07094147 -0.22217837
000170 31 69 e8 be ee b8 fe bd 07 b7 26 bd 5e 23 10 3e
       -0.45392755 -0.12437616 -0.040701892 0.14075992
000180 23 6b 1c 3e e0 95 80 be bd fd a8 3c d8 61 06 3e
       0.15275244 -0.25114346 0.020628804 0.13123262
000190 4b 56 bd bd 5f 2a 0c 3f 92 80 67 3e cb 75 fb 3e
       -0.09244975 0.54752153 0.2260764 0.49113306
0001a0 dc 57 84 be 11 63 3a be 97 45 84 be 14 7a 23 be
       -0.2584828 -0.18201853 -0.25834343 -0.15964538
0001b0 b9 43 a3 3d 00 50 86 3e d8 de df be 7b bc 1a bf
       0.079719014 0.2623291 -0.43724704 -0.6044385
0001c0 96 c7 93 be 11 9b 0f 3f 46 39 ae 3d 28 19 43 3e
       -0.2886321 0.5609599 0.08507018 0.19052565
0001d0 0e 75 d8 be 5d 04 68 be 21 f7 f9 3e bf f5 1b bf
       -0.42276806 -0.22657914 0.48821357 -0.60921854
0001e0 4e 1c e2 3e 61 87 05 be 82 6a d4 3b 0d 0a 9b 3e
       0.4416222 -0.13039924 0.0064824233 0.30281106
0001f0 74 38 cd be 9b 38 e4 bd fa 0e 90 3c 08 1d 71 bd
       -0.40082133 -0.11143609 0.017585266 -0.058865577
000200 b3 7e 63 3e e7 e0 f3 3e 39 74 14 3f 6d 3c da be
       0.222163 0.47632524 0.5798984 -0.42624226
000210 6e 9e dd bd cb 92 ba 3e c4 e4 ba bd 8f 09 50 3e
       -0.10821234 0.3644012 -0.09125665 0.20316146
000220 6b 40 8f 3e b1 ba 25 3f 75 eb 01 be 12 21 56 bf
       0.27978835 0.64737993 -0.12687476 -0.8364421
000230 4d 65 bf 3e b0 a9 12 3f de dc 25 be c5 2f 07 bf
       0.37381974 0.5729017 -0.16197535 -0.52807266
000240 5b 42 6e be d9 1e cc 3e 98 47 cb 3e bd ee a7 3d
       -0.232675 0.39867285 0.3970306 0.081998326
000250 0e a1 74 3e 8f 36 98 3e eb 63 45 be e2 68 5e bd
       0.23889562 0.29729125 -0.19276397 -0.054299243
000260 d3 92 b2 be c4 57 00 bd 7e 7c 59 3a 39 6c 27 3f
       -0.34877643 -0.0313337 0.0008296444 0.6539951
000270 cb 51 56 be 19 05 0f bf 4b 5b 71 3e 8c 70 cc 3e
       -0.20929639 -0.55867153 0.23569982 0.39929616
000280 a8 47 8a bd d9 d6 07 bf 51 f5 c8 3e e9 8a b5 be
       -0.067519486 -0.53062207 0.39249662 -0.35457543
000290 ba a7 3a be 27 f9 de 3d 5f f4 6a 3f e4 4c 77 bd
       -0.18228045 0.10887366 0.9177913 -0.060376063
0002a0 88 38 85 bb 6e 35 8d be 28 e5 7b bf e2 78 00 3f
       -0.004065577 -0.27579826 -0.9839654 0.5018445
0002b0 a7 6a 23 bf e9 6d 43 be eb ce 1c 3e 85 67 ab 3e
       -0.63834614 -0.19084896 0.15313308 0.33477417
0002c0 2c 7e 1c 3d 78 a1 1a be 1d a4 7b 3e 30 d3 d4 bd
       0.038206264 -0.15100658 0.24574323 -0.10391843
0002d0 44 93 83 3d bf 4b 53 be 5e df 40 3e e3 86 e1 3e
       0.06424573 -0.20634364 0.18835208 0.44048223
0002e0 73 c4 90 3e db 12 d0 3e 00 72 2c 3f 5b 04 7c 3e
       0.2827488 0.40639386 0.6736145 0.24611036
0002f0 ee c2 5b bd 26 f0 56 be b2 e3 e1 3e b0 be 20 3f
       -0.053652696 -0.20990047 0.4411903 0.62790966
000300 fd 62 19 3e 65 82 32 be fb eb 3a be 97 d1 ad 3e
       0.14979167 -0.17432554 -0.18254082 0.33948967
000310 a8 28 ee 3e dd c2 10 be 2a 1e d4 3d 19 96 8e 3e
       0.46515393 -0.14136834 0.10357316 0.2784889
000320 2c b9 2e 3e 17 a0 8d bf 14 61 d9 bc ad 7e 45 3e
       0.17062825 -1.106448 -0.026535548 0.19286604
000330 43 33 13 be 6b 1e 3c be d6 84 8a 3e fb a0 31 3f
       -0.14375024 -0.18370979 0.2705447 0.6938626
000340 8a d5 8f be fe a6 7f be 84 0f 6a 3e 00 d6 c9 3e
       -0.28092605 -0.24966046 0.22857481 0.39421082
000350 97 56 1b bc d2 93 d7 bc bc e5 80 3e 3b c8 9c 3e
       -0.009481094 -0.026315603 0.25175273 0.30621514
000360 9d d6 f1 3e 18 8b a9 be 2c 6c 1b 3f a9 85 0a 3e
       0.4723405 -0.33113933 0.6071193 0.1352755
000370 25 66 0c 3e af 53 b0 3e 4f 31 a8 3d 65 a6 32 3e
       0.1371084 0.34438846 0.0821253 0.17446287
000380 b1 4f 52 3d af 1b 9d 3e c5 da 58 be e9 73 c8 bd
       0.05134553 0.30685183 -0.21177204 -0.09787733
000390 5f 2b eb 3d fc 6d e7 3d e3 93 e5 bd 98 be 93 3d
       0.11482882 0.11300275 -0.11209848 0.07214087
0003a0 29 ff 2d be 5f f2 13 bf 16 b7 1e be e6 2d 1b be
       -0.16991867 -0.57791704 -0.15499529 -0.15154228
0003b0 9e 29 cb 3d fa 2b 0f bc 83 b6 d4 bd 49 ae de 3e
       0.09920047 -0.008738512 -0.10386374 0.43492344
0003c0 13 1e 12 bf e6 11 e0 3d 02 0e 8a be 0b 09 ed 3e
       -0.5707714 0.10940914 -0.26963812 0.46295962
0003d0 61 7f 29 3e 06 ae 3b bf e3 46 3f bb 42 7a d2 3d
       0.16552497 -0.73312414 -0.002918654 0.10277225
0003e0 0b bf 51 3e c9 df 9f bc 4b eb c2 bd fc 00 3c bf
       0.20483033 -0.019515889 -0.09517535 -0.73439
0003f0 2c 0c c4 3e 9a c0 af 3e dc 2c 3a 3c 7d 1e 85 3e
       0.38290536 0.3432663 0.011363234 0.25999823

hidden_layers.0.bias f4 [128]
000000 bb e8 8a 3f 6d f1 95 3d e0 be d3 bf 8f e9 17 c0
       1.0852274 0.07321439 -1.6542625 -2.3736303
000010 8f 63 43 3f 97 93 05 3f 64 46 b8 3e 9b 47 1a c0
       0.7632379 0.5217833 0.35991204 -2.4106205
000020 30 9b 21 3f 80 d4 88 3e fe 7a 83 3f 4d e7 c9 3f
       0.6312742 0.26724625 1.0271909 1.5773712
000030 6b 10 39 3f ab 4c 02 bf 1c d0 7f be 4f 43 80 3f
       0.72290677 -0.50898236 -0.24981731 1.0020541
000040 6b ba d1 3f 14 bc 31 bf b1 9c 83 3f 94 9e 08 c0
       1.6385015 -0.6942761 1.0282193 -2.1346788
000050 b8 b9 16 bf ac a5 a1 bd bb 74 ea 3e d5 79 b4 3e
       -0.58877134 -0.078929275 0.45792183 0.352492
000060 d4 2b e8 3e e3 73 b3 3f 30 13 8b 3f c0 d3 93 b9
       0.45345938 1.4019741 1.086523 -0.0002819579
000070 09 b1 4a 3f c2 38 cc 3f 5c 1f ac 3e 63 72 0f c0
       0.79176384 1.5954821 0.33617675 -2.2413566
000080 ab ae b6 3e 92 ed 25 3f 9a e9 c8 bf f0 9e 06 c0
       0.35680136 0.6481563 -1.569629 -2.1034508
000090 77 7f 50 3f 6d 69 84 3f 22 92 01 3f 4c bc 1a c0
       0.81444496 1.0344673 0.50613606 -2.4177427
0000a0 2f b7 3f bf 18 3b d2 bf 2c 75 53 3e 34 ff 1e c0
       -0.7488889 -1.6424284 0.20650166 -2.4843264
0000b0 ec 58 12 c0 b6 be 89 3f e6 72 c1 3e 27 51 d1 bf
       -2.2866774 1.0761325 0.37782973 -1.6352891
0000c0 ac 24 d4 3d c2 57 1d 3f 36 02 54 3f 0c 72 ae 3f
       0.10358557 0.6146203 0.82815874 1.3628554
0000d0 73 6f 1c 3f 38 ce 88 3e ff 49 cb bf 12 a0 26 3f
       0.6110756 0.26719832 -1.5881957 0.65088
0000e0 4f a0 1e 3f f1 24 0f c0 c7 ba 22 3e 9c a2 5b 3e
       0.6196336 -2.2366297 0.15891562 0.2144875
0000f0 83 d3 9d 3f dc 2e 8d 3e 68 09 26 3e 8c d1 fc 3e
       1.2330173 0.27574813 0.16214526 0.49378622
000100 59 3f f8 3e e9 e2 64 3d d6 b2 c7 be 0e 37 89 3e
       0.4848583 0.05588046 -0.39003628 0.26799816
000110 52 22 54 3e 8a f6 5e 3e fe 7e 1f 3f 6b 8e 41 3f
       0.20716217 0.21773735 0.6230315 0.7560794
000120 c1 16 ac 3f 26 51 f5 bf 63 02 66 3f 60 92 44 3e
       1.3444444 -1.916539 0.8984739 0.19196463
000130 66 fb ff 3e 87 5d 66 3f a1 22 85 bf 0b ee c2 bc
       0.4999649 0.8998646 -1.0401193 -0.023795148
000140 28 c4 87 3f b8 d9 91 3e f9 0e d8 3e 63 83 03 c0
       1.0606737 0.2848642 0.42198923 -2.0548942
000150 30 03 73 3e 9f b8 2a 3f 9a de 56 3f d9 a3 1e 3f
       0.23731685 0.6668796 0.83933413 0.6196876
000160 4d 5f 31 bf 37 ff ca bf e3 9d f3 3e 81 c2 52 3f
       -0.6928604 -1.5859135 0.47581396 0.8232804
000170 a3 cb 82 bf b0 59 99 3f 24 57 56 3f f7 3f 3d 3f
       -1.0218395 1.1980495 0.83726716 0.7392573
000180 23 1f 37 3f 83 db 99 3e 91 c0 78 3f ab c9 41 3f
       0.71531886 0.30050287 0.97168833 0.75698346
000190 86 34 3b 3f fe 4f 55 3f 0f a4 52 3f 91 ed 34 3f
       0.7312702 0.83325183 0.82281584 0.70675
0001a0 35 85 48 3f fe 1b 44 3f a4 64 e3 3e a6 68 9c 3e
       0.7832826 0.7660521 0.4441272 0.3054859
0001b0 00 d9 96 3f d6 58 1a 3f 80 23 11 c0 3d 6e 1f 3f
       1.1784973 0.602918 -2.2677917 0.62277585
0001c0 c3 20 32 3e bd 3d 3c 3f 6f 28 4c 3f 68 cb e9 3e
       0.1739531 0.73531705 0.79749197 0.45663
0001d0 3d df 1f c0 96 a9 05 3f a6 13 3b 3f 16 c0 49 3e
       -2.4980004 0.5221189 0.73076856 0.19702181
0001e0 8a 8b fa bf d0 fb 13 c0 ed a4 23 3f 41 92 a0 3f
       -1.9573834 -2.3122444 0.6392353 1.2544633
0001f0 3a b7 32 3e f6 c0 7b 3e ff f4 42 3f d3 39 97 3e
       0.17452708 0.24585328 0.76155084 0.29536304

hidden_layers.1.weight f4 [128, 128]
000000 48 87 27 3e 74 09 02 3f ab 0f 01 3f f1 88 e9 3e
       0.163602 0.50795674 0.5041453 0.4561229
000010 86 bd 88 bd 12 e5 88 3e ae 07 94 3c 68 8d 6b 3e
       -0.06676774 0.26737267 0.018070068 0.23003161
000020 c6 c8 ae bd 94 d1 a4 3e 17 67 a8 3e 3b a2 12 3e
       -0.08534388 0.32191145 0.3289115 0.14319699
000030 2d 02 94 bd b2 66 ef 3e c7 0a 85 be 07 76 dd bd
       -0.072269775 0.46758038 -0.25984785 -0.108135276
000040 f8 a5 02 3e ca 6e d8 3c 71 36 e5 3d 9f d5 3c 3f
       0.12758625 0.026420016 0.111920245 0.7376346
000050 77 44 25 3f 6d 04 8f 3e 93 e4 c6 3d 2c f9 4c bf
       0.64557594 0.27933064 0.09711566 -0.80067706
000060 a8 65 08 3d 91 4b 1c bd 1e 62 a7 bd 1f 4d f9 3d
       0.033300072 -0.038158003 -0.08173011 0.12172913
000070 cd 73 e4 be c4 83 43 3e 7a cd 30 bc 8f b5 29 3f
       -0.446196 0.19093233 -0.010791177 0.6629266
000080 df b6 83 3d 52 81 81 bd f7 43 aa 3d cd 7a 86 3e
       0.06431364 -0.06323494 0.083137445 0.26265565
000090 47 7e 04 3e fc 54 c0 3d 99 e2 1c be de 93 63 3f
       0.12938796 0.093912095 -0.15320815 0.888975
0000a0 2d a9 8a 3e 41 0b 8f 3d bc 58 03 3f 54 e2 49 3f
       0.27082196 0.069845684 0.5130727 0.78860974
0000b0 3a 90 f4 3e fa 0f 59 3e 24 dd 40 3e c2 09 4b 3f
       0.47766286 0.21197501 0.18834358 0.79311764
0000c0 b1 bb 8b 3c 4c a7 34 3d 82 d5 24 be a4 6a e1 be
       0.017057272 0.04410486 -0.16097072 -0.44026673
0000d0 01 87 0d 3e ea f3 51 bf 26 ea f9 3e 46 16 55 3e
       0.13821031 -0.8201281 0.48811454 0.20809278
0000e0 2c 80 25 bf 3e 2a f5 3e 62 6e 61 bf 1f 74 90 3e
       -0.646487 0.4788379 -0.88059056 0.28213593
0000f0 ff 14 c2 3b a9 67 0f 3e a3 dc 4e bf 8c 40 b9 be
       0.005922913 0.14004387 -0.80805415 -0.36182058
000100 9a bb 53 bf c3 88 95 be e5 c1 8d be 70 26 6a bf
       -0.8270813 -0.29205903 -0.27686992 -0.914649
000110 af ed 65 bf 76 de 22 bf 11 54 8b bd 23 9b 09 be
       -0.898158 -0.636207 -0.06803144 -0.13438086
000120 20 92 10 3d a8 9d 45 3f 10 cf ab be 74 d4 11 3f
       0.035295606 0.7719369 -0.33556414 0.569648
000130 4e cb 19 3e 60 3b e4 bd ca 50 f4 3e 0a c3 6b bf
       0.15018961 -0.111441374 0.47717887 -0.9209448
000140 22 54 82 be dc 9f 79 3e 63 25 6c 3e 6e 0f 79 3d
       -0.25454813 0.24377388 0.23061137 0.06080573
000150 9c 21 e5 be 7b 08 20 be 60 7f e0 3d d4 b1 0d 3e
       -0.44752204 -0.15628235 0.10961795 0.13837367
000160 56 e6 e1 3e aa 74 c2 3e f6 4e c4 3e f7 26 61 3e
       0.44121045 0.37979633 0.38341492 0.2198752
000170 85 5d 0a 3e 98 3a 40 be 5b 99 0b 3e f6 e9 97 3d
       0.13512237 -0.18772352 0.13632719 0.074176714
000180 8b a9 42 be 5c a2 44 bf 49 76 52 bf e3 6a a5 bd
       -0.19009988 -0.7681024 -0.8221174 -0.08077028
000190 a7 30 65 3d 4d 81 0e be a1 9a cc 3d 9d b4 e2 3d
       0.0559546 -0.13916512 0.099904306 0.110696055
0001a0 e5 a7 cc be d5 ed 94 be 70 e2 ae be 87 93 45 3f
       -0.39971843 -0.290877 -0.34157133 0.77178234
0001b0 fe e8 91 3e ac 30 49 be c2 14 23 3f c4 45 01 3e
       0.2849807 -0.19647473 0.6370355 0.1262427
0001c0 f2 35 97 3e d4 04 ef bc 7c 63 9c be f3 40 91 3a
       0.29533345 -0.029177107 -0.3054465 0.0011081978
0001d0 40 b7 5b 3c c2 cd d9 be 9f 18 e0 3e 2f 5c d6 3e
       0.013410389 -0.42539793 0.43768784 0.41867206
0001e0 ee 15 66 bc a4 4a e7 3e 3c 92 18 be 41 e2 cb 3d
       -0.014043314 0.45174134 -0.14899534 0.09955264
0001f0 42 ed 1d 3d 6c ad 26 be f4 87 9a 3e 96 46 2b bf
       0.038556345 -0.16277093 0.3018185 -0.6690458
000200 3a d0 e3 bd e9 3e eb 3b f6 00 03 3f a0 96 2c 3f
       -0.111237004 0.0071791303 0.5117334 0.67417336
000210 55 b2 d0 be bc af d3 3e af f5 78 bc d0 85 b3 3e
       -0.40761057 0.41345012 -0.015195294 0.35063028
000220 76 ac 04 bf 67 31 b2 3e 30 8e 05 3e 5b 5e 3b bc
       -0.51825655 0.34803316 0.13042521 -0.01143607
000230 c9 91 be be 0f fb 3f 3e 7f 64 e5 3d 20 91 0c be
       -0.372206 0.18748115 0.11200809 -0.13727236
000240 03 82 9d 3e ca a9 2d be 4d c3 06 3f e6 82 22 3d
       0.30763254 -0.169593 0.52641755 0.039675616
000250 ac 25 56 3e 3a 04 61 3e 03 16 3c 3d 9e d6 8d bf
       0.20912808 0.21974269 0.04591943 -1.1081121
000260 5b 4a 56 be eb b9 83 3e 6d f4 05 bf 73 2d 16 bc
       -0.20926802 0.25727782 -0.5232609 -0.009166109
000270 bb aa 0c 3c ed f2 81 3e 1b 75 02 be 80 28 7a bc
       0.008585627 0.2538065 -0.12739985 -0.015268445
000280 e6 12 67 bb 7b c8 0a be ec ad 38 3e 95 f5 80 3e
       -0.0035259067 -0.1355304 0.18035096 0.25187364
000290 e4 fc df bd c7 51 58 3e a9 fa e0 3d 27 b3 fd 3e
       -0.10936907 0.21124946 0.1098531 0.49550745
0002a0 8b 76 b6 bc 83 c0 c3 3e ab 39 b6 3e fa 78 f1 3e
       -0.022273323 0.38232812 0.35590872 0.4716261
0002b0 2d 17 b4 3e 8e 44 b3 3a 81 fb d1 bc b7 cd a0 3e
       0.35173932 0.0013677047 -0.025632622 0.31406948
0002c0 c3 4b b4 be bd ca 45 be 50 6b 37 bf 6e 4c 82 be
       -0.35214052 -0.1931562 -0.7164812 -0.25448936
0002d0 a9 1a 3a 3e e5 dd 50 bf 96 89 05 3e 20 07 57 be
       0.18174233 -0.81588584 0.13040766 -0.20998812
0002e0 66 80 29 bf 14 81 2f 3f 1c 9b 7b bf 07 f0 32 bf
       -0.66211545 0.6855633 -0.98283553 -0.698975
0002f0 0e 2b 31 3e 1f c5 ca be ca c3 0d bf 48 15 e1 be
       0.1730158 -0.39603516 -0.55376875 -0.4396155
000300 06 ea 40 bf d2 fe 13 bf e0 c4 33 bf 49 e4 70 bf
       -0.7535709 -0.578107 -0.7022228 -0.94098336
000310 3c cb 1d bf 37 13 2c bf 38 24 7b 3d 1a 31 05 be
       -0.61638236 -0.6721682 0.061313838 -0.13007012
000320 38 95 07 3e 7f dc c0 3e cd 6e 6f bf be 94 9c 3e
       0.13240516 0.37668225 -0.93528444 0.3058223
000330 71 6e 76 bc 37 ef 1e bd 75 43 13 3e 34 dd c7 be
       -0.01504098 -0.03880235 0.14381202 -0.39035952
000340 67 25 ac bc 4e c9 65 3d 26 4d 04 3f 87 3c b8 bd
       -0.021013929 0.056100182 0.5168022 -0.0899592
000350 57 47 07 bf 16 86 32 be 10 2e 0d bf f9 af a0 be
       -0.5284323 -0.17433962 -0.5514841 -0.31384256
000360 dd 7f 3a 3f 57 aa 03 3e 7f 1b e6 bc f2 62 78 3e
       0.72851354 0.12857948 -0.028089283 0.24256495
000370 5b 92 9b 3d 02 1c c8 bd fc d2 04 be 23 47 24 3e
       0.075962745 -0.09770967 -0.12971109 0.16042762
000380 1e 20 c6 be 72 f6 b4 bf 1e 57 1e 3d 7b a2 e7 3d
       -0.38696378 -1.4137709 0.0386573 0.113102876
000390 fa 41 a0 3e cb 20 bf be 30 04 cc 3d 17 e9 be 3e
       0.31300336 -0.37329707 0.09961736 0.37287208
0003a0 b8 70 ed be a8 16 25 bb 10 84 29 bf 5a 18 57 3f
       -0.4637506 -0.0025190506 -0.66217136 0.8402153
0003b0 8a ba 2a 3e 17 7c 0f bf 81 4d 02 3e c8 3f 2e bc
       0.16672722 -0.5604872 0.12724878 -0.010635324
0003c0 5d c8 c3 be 6c 5c 0d be f5 36 0c 3d c9 aa 01 3e
       -0.38238803 -0.13804787 0.0342321 0.12662806
0003d0 05 df 00 3e 4b 80 c4 be 85 5f 26 3e 31 21 1f 3f
       0.12585075 -0.3837913 0.16247375 0.6216002
0003e0 0d 5e 95 3d e5 90 9e 3e 54 c5 8b bf a0 fd 30 3e
       0.072933294 0.3096992 -1.0919595 0.1728425
0003f0 5c 60 4d bf f1 38 31 bf b0 c8 69 3e b9 b3 23 bf
       -0.8022516 -0.6922751 0.22830462 -0.6394611

hidden_layers.1.bias f4 [128]
000000 6c 65 05 3e 26 80 fe bb fa d3 a8 3e d7 cb 48 3e
       0.1302697 -0.0077667413 0.32974225 0.19609009
000010 23 cc e2 3d 54 0b 4c 3e a1 35 5d 3e 84 89 5b 3e
       0.11074092 0.19926196 0.21602489 0.21439177
000020 19 45 4d 3e 37 e7 0b 3e b8 47 8c 3e dd bc 1f 3e
       0.2004589 0.1366242 0.27398467 0.1559939
000030 c5 7a 63 3e d6 a7 51 3e 23 dd 53 3e f9 95 79 3d
       0.22214802 0.2047418 0.20689826 0.06093404
000040 92 69 30 3e 56 52 7b bd 71 e7 0c 3e 03 bf 91 3e
       0.17227772 -0.06135782 0.13760163 0.28466043
000050 3e e3 8d 3d ef 57 ab 3d d2 63 8e 3e 7e 65 c3 3d
       0.06928109 0.083663814 0.27810532 0.095408425
000060 08 7e 52 bc 63 9b c9 3e 85 f8 81 3e 46 02 f6 3e
       -0.012847431 0.39376363 0.25384918 0.4804861
000070 df d6 a4 3d 6e 7c 41 3e f8 ff 2d 3e 41 5b d5 bd
       0.08048796 0.18895122 0.16992176 -0.10417796
000080 09 4a 68 3e 31 eb c6 3d ec 11 7a be f8 c7 87 3e
       0.22684492 0.09712828 -0.24420899 0.26519752
000090 37 7a da 3c fb f8 62 3e 20 3b 60 3b ff 78 93 3d
       0.026669605 0.22165291 0.0034214929 0.072008125
0000a0 9f df e1 3d b5 01 86 3c 30 e6 22 be 8c c1 b6 3d
       0.110289805 0.016358236 -0.15908122 0.08923635
0000b0 0f d9 a5 3d 20 79 42 3e 1d 9b 36 3d 51 44 c1 3d
       0.08098041 0.18991518 0.04458152 0.094368584
0000c0 db e4 98 3e 1d f9 f6 3d 3c a3 5c 3d 30 f1 5a 3d
       0.29862103 0.12059233 0.05386661 0.05345267
0000d0 7e 84 81 be 9a 86 c1 3e 41 5f 08 bd c6 15 a8 3e
       -0.25296396 0.37798005 -0.033293966 0.32829112
0000e0 02 1a b6 3d 04 6c 36 3e dd d7 87 3e 47 9b 0d 3e
       0.08891679 0.17814642 0.26531878 0.13828765
0000f0 44 20 64 3e e6 e8 71 3e 40 71 42 3e 3a 85 5d 3e
       0.22277933 0.23624 0.18988514 0.21632853
000100 f2 71 9e 3e 61 97 1c 3e 40 3b a2 3d 0c 36 ff 3d
       0.30946308 0.15292121 0.07921457 0.124614805
000110 0b 99 5d 3e 89 3d 1e 3e 3a 29 cf 3d 55 87 2c 3e
       0.21640413 0.15453161 0.10115285 0.168485
000120 39 41 6a 3e ec 01 75 3e 22 6e 81 3e 7f e3 81 3e
       0.22876443 0.23926514 0.25279337 0.25368878
000130 eb 16 13 3d 73 b2 fe 3d f8 54 84 3e 1f f9 10 3e
       0.03591053 0.1243638 0.25846076 0.14157532
000140 c2 27 c2 3d 61 97 df bd 31 f9 b8 bd 4c 86 31 3e
       0.094802395 -0.10917545 -0.090319045 0.17336386
000150 41 d7 04 3f 32 fe cf bc 5a 41 f4 3d 38 cc be 3e
       0.5189095 -0.025389764 0.11926527 0.37265182
000160 ef 4e 8b 3e 8d 27 65 3d 13 77 3b 3d 64 29 b1 3d
       0.2720866 0.05594592 0.045767855 0.08650473
000170 be 20 8f 3e fa 2b c1 3e 57 f9 90 3e 70 b9 b2 bd
       0.27954668 0.37728864 0.2831523 -0.08726776
000180 a2 84 06 3e 94 63 12 3d a8 48 3d 3e 0b d8 80 3e
       0.13136533 0.035739496 0.18484747 0.25164828
000190 7c c2 ff 3e 92 da ff 3c 6e b4 89 3e 1c 23 64 3e
       0.49953067 0.031232152 0.2689547 0.22279018
0001a0 33 6d e6 3d 86 56 20 3e 11 86 53 3e d8 9a ea 3d
       0.11251297 0.15658006 0.20656611 0.11455315
0001b0 70 28 f8 3e dc 3b 1d 3e d8 29 b2 3e d5 af 6c 3e
       0.4846835 0.15354866 0.3479755 0.2311395
0001c0 c4 ca 88 bb 06 32 a3 3e a4 dd c6 3d 4a a8 8f 3d
       -0.004174562 0.31874102 0.09710243 0.070145205
0001d0 fe b3 d3 3d a2 10 1d 3d 25 35 14 3e 87 53 a2 3d
       0.10337065 0.03834594 0.14473398 0.07926088
0001e0 fb af 54 3c 64 43 a8 3d 31 f7 49 3e fe 8e cf 3d
       0.01298141 0.08215979 0.19723202 0.101346955
0001f0 3a 14 74 3e ce 25 ac 3d a4 30 a0 3e b6 e5 b6 3d
       0.23835841 0.08405648 0.3128711 0.08930533

hidden_layers.2.weight f4 [128, 128]
000000 04 75 70 3d 7c 22 7c be 91 9c 84 3e 9a 63 79 3c
       0.058705345 -0.2462253 0.259007 0.015221501
000010 73 1a 6d 3e 9a 40 94 3e ba 27 fb 3e 41 08 37 3e
       0.23154621 0.28955537 0.49053746 0.17874242
000020 41 1a 31 be f9 e2 f3 3e d6 9a fc 3d 33 df 9b 3e
       -0.17295171 0.47634104 0.1233422 0.30443725
000030 09 a2 15 3e 86 a3 14 3e 65 1a e4 3e 6c 65 5d 3e
       0.14612593 0.14515504 0.44551387 0.2162072
000040 92 50 c2 3c ae 46 2e bf 7f d2 9f 3e 8b e0 6c 3e
       0.02372006 -0.680766 0.31215283 0.23132531
000050 8e fe 0d be 36 10 c2 bd c1 bc 9d 3e b6 2c 17 bf
       -0.13866636 -0.09475748 0.3080807 -0.590526
000060 69 73 36 be 09 31 5a 3d c3 a4 f5 3e 26 51 8b 3e
       -0.17817463 0.05326942 0.47977266 0.2721035
000070 b7 03 f2 3c a0 b0 ad 3c a1 ab 85 3e 22 20 2d 3e
       0.029542787 0.021202385 0.26107505 0.16906789
000080 1d ca f5 bb 01 7b 14 bf ed 44 6f bf 0b d9 e1 3d
       -0.0075009004 -0.5800019 -0.9346455 0.11027726
000090 c7 09 d8 be 2e 69 f9 3e 90 3b ed 3e f9 df ce bd
       -0.4219496 0.48713058 0.46334505 -0.10101313
0000a0 cb 47 67 bd d4 06 b4 bd 3b 4e 0e bf f3 42 a9 bd
       -0.05646495 -0.08790365 -0.5558812 -0.08264723
0000b0 89 d7 02 3e 48 4b a9 3e 53 fc 64 bd 24 6d af 3e
       0.12777533 0.33065248 -0.055904698 0.34262955
0000c0 8e e8 93 3e 5d 78 9c be 9f 7c d2 3d 70 12 33 3e
       0.28888363 -0.3056058 0.10277676 0.17487502
0000d0 4c 0d 5e bf 0d ab dc 3e 33 d9 d0 be 16 3f 57 3e
       -0.8673904 0.4309925 -0.4079071 0.21020159
0000e0 8f b9 d1 be 2d 0a 69 3e de 58 35 3f 2c 38 47 3e
       -0.40961882 0.22757788 0.70838726 0.19455022
0000f0 3d 66 9d 3d c8 0b 9f 3e 8b 2a e1 bd e7 2c 39 3d
       0.07685516 0.31063676 -0.109944426 0.045208838
000100 52 cc e8 3c 79 8e 6e 3f 3c d6 85 3e 99 14 96 3e
       0.02841774 0.93186146 0.2614001 0.2931259
000110 68 54 40 3f ae ef e4 be 02 f4 5a be 53 d7 df 3e
       0.75128794 -0.4471411 -0.21382144 0.43718967
000120 77 db 85 3e 02 58 9c 3e 8c e9 de 3d 05 f9 41 3e
       0.26144 0.30535895 0.10884389 0.1894265
000130 e0 b7 44 3f f9 45 34 3f ef 39 a8 3e 6e 62 1f bf
       0.7684307 0.7041927 0.328567 -0.62259567
000140 ca 21 c8 3e 6a 35 8a 3d fa 92 6d bf f0 23 ad 3e
       0.3908828 0.06748469 -0.92802393 0.3381648
000150 e7 4b 87 be 28 00 e0 3e 77 79 9d be 15 af a6 3e
       -0.26425096 0.4375012 -0.30756733 0.32555452
000160 cd 39 b8 3e c5 96 45 be c1 c0 12 bf f7 52 ea be
       0.35981598 -0.19295795 -0.5732537 -0.45766422
000170 d7 34 81 3e b7 cf 04 3d 19 c0 ea 3e 3e 7a 48 3d
       0.25235626 0.032424655 0.45849684 0.048944704
000180 c9 93 09 3f 87 bd ed 3e 47 26 01 3e ee 51 30 3d
       0.5374113 0.4643366 0.12612258 0.043046884
000190 61 9d e6 be 52 03 09 3f 6c 8e cd 3e 6f f1 f1 3d
       -0.45041946 0.5352069 0.40147722 0.11813628
0001a0 2e d0 81 3c 2e 5a c9 bd a1 ee 35 3e 72 59 06 3f
       0.015846338 -0.098316535 0.17766811 0.5248023
0001b0 a8 ed 01 be d9 28 17 3f 76 d7 e9 3d f2 29 ba 3c
       -0.12688315 0.59046704 0.11418049 0.02272508
0001c0 e3 00 be bc 4a 64 94 3e 9d 6f f0 be cc 06 d8 be
       -0.023193782 0.28982764 -0.46960154 -0.42192686
0001d0 43 15 fb bd 9c a5 20 bf 43 60 a2 3e 99 cb 35 3f
       -0.12259915 -0.627527 0.31714067 0.7101379
0001e0 c6 e0 bb 3d d3 8e 24 3e f6 12 01 bf 70 eb da 3d
       0.091737315 0.16070108 -0.5041956 0.106894374
0001f0 b0 e9 2c bf ee 12 fb be 16 fe fc 3e cc ec 80 3d
       -0.6754408 -0.4903788 0.49412602 0.062951654
000200 ac 30 79 3e 1c 09 29 3e fe 09 f0 be bf 18 20 be
       0.24334973 0.16507381 -0.46882623 -0.1563444
000210 f2 88 d3 be 64 ce 63 bb 09 df 00 bf 6c 47 bc be
       -0.41315418 -0.003476047 -0.50340325 -0.3677324
000220 0b e2 b6 bd 4e 4a c1 be 27 07 0e bf 70 40 fd 3d
       -0.08929833 -0.37752002 -0.55479664 0.12365806
000230 22 d9 a7 bc 3e 2c c7 be 1f 14 ed be 73 68 ae bd
       -0.02048928 -0.38900942 -0.46304414 -0.08516016
000240 ed b7 48 be 33 ff 0b 3f 14 37 03 3e b4 c1 ac 3d
       -0.19601412 0.5468628 0.1281398 0.084353834
000250 9e 1f ba bb d3 53 ec 3c bb ce 24 3c f1 5d a5 3e
       -0.0056800386 0.028848564 0.010059054 0.32298234
000260 90 c2 d4 3e fb 2e a6 bd 3f df 98 be 24 74 72 be
       0.4155469 -0.081144296 -0.29857823 -0.23677117
000270 95 7f 81 be 0a b0 07 3d 3a 82 54 3d 38 82 ec bc
       -0.2529265 0.03312687 0.051882006 -0.028870687
000280 85 48 3f 3d ab 69 a4 3e 0b 49 84 3f cd 84 6b bd
       0.04670002 0.32111868 1.0334791 -0.057499696
000290 14 4d e5 3e 99 e4 c7 bd e3 a7 d6 be 79 31 59 3e
       0.44785368 -0.097603984 -0.41924962 0.21210279
0002a0 ac 50 64 be d0 da f3 ba a4 29 f8 3e c1 5c e7 ba
       -0.22296399 -0.001860464 0.4846927 -0.0017651544
0002b0 fa 48 8e be 33 79 e7 be d7 12 10 be b1 58 5e be
       -0.27790052 -0.45209655 -0.14069687 -0.2171352
0002c0 f6 7e 05 3e eb cc c3 3e 6c b5 97 3d e8 4d 56 be
       0.13036713 0.38242278 0.0740765 -0.20928156
0002d0 f6 59 9c 3f f6 2c 59 be 86 e9 10 3f 0b 5d b4 3e
       1.2214954 -0.21208557 0.5660633 0.35227236
0002e0 c9 fc cb 3d 68 30 ad be 1c 37 6b be a5 df 28 bf
       0.09960324 -0.33825994 -0.22970241 -0.65966254
0002f0 07 21 4a 3e 11 c9 d0 be 7d 10 ad 3e 08 b9 e5 be
       0.19739161 -0.40778401 0.33801642 -0.4486773
000300 da 30 a5 be 23 19 9d bc f9 15 cf be 17 a8 28 be
       -0.32263833 -0.019177025 -0.4044645 -0.16470371
000310 bd 57 87 be c9 4c 00 3e f3 97 90 bd d1 db 05 bf
       -0.26434126 0.12529291 -0.07060232 -0.5228854
000320 f8 5f 8e be bf 6a 98 be 98 c2 74 be ec c8 82 bd
       -0.27807593 -0.2976894 -0.23902357 -0.06385979
000330 93 7c 0c be 40 82 29 be d5 4f 71 be b7 fd 17 bb
       -0.13719396 -0.16553593 -0.2356561 -0.0023191997
000340 23 83 68 3e f8 f0 d5 bd a7 96 b2 3e 9d aa 25 bf
       0.22706275 -0.10446352 0.34880564 -0.6471346
000350 d4 bc 1b 3e f0 94 b1 be 60 77 af 3e f7 9c d2 be
       0.15208751 -0.34683943 0.34270763 -0.4113538
000360 c2 07 b1 be 49 4e 8f be 8b 82 b5 3e c1 d0 94 3e
       -0.3457623 -0.27989414 0.3545116 0.29065517
000370 66 ab b3 be bf b9 ec be 49 75 9b bd c1 1d 70 3d
       -0.35091704 -0.46235463 -0.0759073 0.058622126
000380 d8 bb cd bd 7e 64 86 be fd 77 09 bf f4 d2 43 be
       -0.10045594 -0.26248544 -0.5369871 -0.19123441
000390 c7 9b ac 3c ea 92 bd be 5a b9 c6 be f5 5c 54 be
       0.021070374 -0.3702615 -0.38813287 -0.20738585
0003a0 ac 9a 49 3e b8 13 e0 3e 60 dc fc 3d 90 91 c8 be
       0.19687909 0.43765044 0.12346721 -0.39173555
0003b0 1e e5 17 3e 9f 19 b5 be 27 2a d3 be b3 3c d1 3d
       0.14833495 -0.3537111 -0.41243097 0.102166556
0003c0 96 3d 99 bc d4 86 90 be 9f 84 86 3e f4 7a c0 3e
       -0.018706124 -0.28227866 0.26273057 0.37593806
0003d0 67 82 c7 3d 3e cb 12 3f e4 49 16 bf c1 9f ef be
       0.09741669 0.5734137 -0.587065 -0.4680157
0003e0 d0 96 10 3e 27 5c fe bd 52 40 b6 3e 69 bc 8c be
       0.1412003 -0.124199204 0.35595948 -0.27487496
0003f0 d1 42 bb 3e 3c 0f 88 3e 02 a2 26 bf 2f c6 92 be
       0.36574414 0.26574123 -0.65090954 -0.28666827

hidden_layers.2.bias f4 [128]
000000 30 ed 3f 3e cf be 4c bd 72 b9 df bd 00 b8 6c be
       0.18742824 -0.049986657 -0.10924043 -0.23117065
000010 6f 97 14 bd 2b c7 05 be dd 6a 45 3e 57 a7 4a 3e
       -0.03627723 -0.13064258 0.19279046 0.19790398
000020 1e c9 4c 3e ca e6 02 3e aa 8d db bc 2f 6a 50 3e
       0.19998595 0.12783352 -0.02680095 0.20353006
000030 49 a4 b0 be 13 6f ae 3e c9 f5 73 bd 37 d1 a1 3e
       -0.3450034 0.34069118 -0.05956057 0.3160493
000040 3b c2 67 be 48 3a 8d 3d 31 84 37 be f3 89 a7 3e
       -0.22632687 0.06895882 -0.17921521 0.32722434
000050 18 c6 22 3c 30 dc 8c be df ee 11 bd 88 de ee bd
       0.009934925 -0.2751174 -0.035628196 -0.11663538
000060 16 00 7b 3d e9 90 81 be b5 47 65 3e 8a 2c 82 3e
       0.06127938 -0.2530587 0.22390635 0.25424606
000070 bc d5 07 3e 63 d5 24 3d e2 af 7f 3e 69 07 db 3d
       0.13265127 0.040242564 0.24969438 0.10694773
000080 f0 c6 0a be 65 e6 b4 be a6 46 2d 3e e2 5f e0 bd
       -0.13552451 -0.35332027 0.16921481 -0.10955788
000090 68 54 92 be 7a 31 1e 3e 6d 38 4b 3b 2d 27 c2 3b
       -0.28580022 0.15448561 0.0031008974 0.0059250803
0000a0 38 29 c0 3d 0d 7e 64 bc f0 53 c6 bd d9 f8 63 3e
       0.09382862 -0.0139460685 -0.096839786 0.22262897
0000b0 6f 94 3a 3e f6 09 b5 bd 80 4a 67 3d a4 55 35 be
       0.18220685 -0.088397905 0.056467533 -0.1770845
0000c0 d1 f8 28 bc 35 ec 2f 3e a2 59 2f 3e b6 96 5c be
       -0.010313229 0.1717995 0.17124036 -0.21541867
0000d0 fe 41 28 3d 7d 74 43 be dd 37 a0 be 2c 75 98 bd
       0.04107856 -0.19087406 -0.3129262 -0.07444224
0000e0 44 1b 21 be 7f 94 a1 bd 96 4f 25 3e 02 1c 8d 3e
       -0.15733057 -0.078896515 0.16143641 0.2756043
0000f0 76 1a 94 3e 4c db c6 be 59 fa 87 3e c3 d6 78 bd
       0.28926438 -0.38839185 0.26558188 -0.060751688
000100 c6 d9 f7 3d 89 03 4b be 08 4b 87 3e 6d 9f 1a be
       0.12102084 -0.19825567 0.26424432 -0.15099879
000110 be 82 86 3e 24 57 12 3d cf ba 58 be ab 22 14 3e
       0.26271623 0.035727635 -0.21165012 0.1446635
000120 72 04 07 be fc 0e 82 be a6 9c 88 be 77 45 2e be
       -0.1318529 -0.25402057 -0.26682013 -0.17018686
000130 00 ef 72 be 24 25 82 be 61 37 52 3c 19 f4 2f bd
       -0.23723984 -0.2541896 0.012830586 -0.0429574
000140 69 fa 9b 3e ee 41 96 3b 9e 2f 0c 3e 85 f5 68 be
       0.30464485 0.004585496 0.1369004 -0.22749908
000150 01 8c 99 3e b1 65 8e 3e d2 8f d1 bd cb bf 4f 3d
       0.29989627 0.2781196 -0.1023251 0.050720017
000160 7f 28 68 3e 71 2e 90 3e 9a 04 c9 be 0d 35 7d be
       0.22671698 0.28160432 -0.39261323 -0.24727269
000170 5d a9 b5 be d7 53 bf 3e a3 d5 72 bd 2a 3b ab 3e
       -0.35480776 0.37368652 -0.05928577 0.33443576
000180 93 8d d9 bd 11 7d 50 be 35 48 86 3d c6 95 8e be
       -0.10622706 -0.20360209 0.06556741 -0.27848643
000190 0f d2 2f 3e 29 0d 8f 3e b0 0e c2 3d de 86 79 be
       0.17169975 0.27939728 0.09475458 -0.24367854
0001a0 62 05 d9 3d 2e 03 62 3e 26 28 23 be 6f ae c5 3c
       0.1059673 0.22071525 -0.15933284 0.024131028
0001b0 40 02 9f 3e ef 9f 14 3e e9 5f 24 3e 6e e8 d2 3d
       0.31056404 0.14514135 0.16052212 0.10298239
0001c0 21 57 fd bd 69 7a 25 3e dc 83 c4 3d f8 f9 49 be
       -0.12370134 0.16159977 0.09595463 -0.19724262
0001d0 dc 5c 72 3e fb 73 39 3e 1e 47 40 be 9e 68 4c 3e
       0.23668236 0.1811065 -0.18777129 0.19961783
0001e0 b7 54 08 3e 8a 82 9a 3e 05 91 91 3e c2 78 23 3e
       0.13313566 0.30177718 0.28430954 0.15964034
0001f0 a8 51 f6 bc fe 13 5b bc 49 92 47 3e 57 dc 02 3e
       -0.030068234 -0.013371466 0.19489397 0.12779365

hidden_layers.3.weight f4 [128, 128]
000000 81 0e 08 bf ed 7a 36 be 75 09 0e be 27 cb 33 be
       -0.5314713 -0.1782033 -0.13870795 -0.17557965
000010 52 39 bc be 00 60 09 3d 54 6e 47 bf 66 87 e6 be
       -0.36762482 0.03353882 -0.7790272 -0.45025176
000020 13 7c 51 bf 33 c5 5b bf ab 96 16 bd 44 8d 49 bf
       -0.8182995 -0.8584778 -0.036764782 -0.7873118
000030 87 50 05 3f c6 0a 61 bf 33 81 8f 3d 61 27 4a bf
       0.52076 -0.87907064 0.07007065 -0.7896634
000040 8d 36 81 bd 4b 8a fc bd 88 4b 83 3e 51 e1 03 bf
       -0.06309233 -0.12331065 0.25643563 -0.5151568
000050 29 bd 31 be 69 ff 2c bd 86 88 38 be 51 41 6e be
       -0.17357315 -0.042235766 -0.1802083 -0.23267104
000060 68 2f 22 3d c2 94 3c be c9 61 4a bf e0 a2 a8 be
       0.03959599 -0.18416122 -0.7905546 -0.32936764
000070 a9 cb 49 be 8f d9 64 bf d3 8c 04 bf b4 ab a7 be
       -0.19706596 -0.8939447 -0.5177738 -0.32748187
000080 e4 16 e9 3e ff b9 2b 3f 96 5d 08 bf 8d 34 65 3e
       0.45525277 0.6708068 -0.532678 0.22383328
000090 f4 b5 ae be b5 36 eb be c0 1f b2 be a7 65 d8 be
       -0.34123194 -0.45940176 -0.34789848 -0.42265055
0000a0 2d 02 2f be 10 00 16 3e a1 21 de bd ab f4 48 bf
       -0.17090674 0.14648461 -0.10846258 -0.78498334
0000b0 20 6b 17 bf ce e8 56 bd 6c 8c e0 be e6 48 e3 3e
       -0.59147835 -0.052468114 -0.43857133 0.44391555
0000c0 62 85 a5 be 0e b7 de be c2 37 e2 be 78 4d d1 3c
       -0.32328326 -0.43499035 -0.44183165 0.025549635
0000d0 46 6f ce be 7b 50 c6 bc de ed 65 3f 9d 7b 81 be
       -0.4031927 -0.024208298 0.8981608 -0.25289622
0000e0 60 ca d0 3c d7 82 8c be 2a 6b f5 be c0 06 ef be
       0.025487125 -0.27443573 -0.47933322 -0.46684837
0000f0 31 b6 0d bf 34 ec b4 3f 92 a9 08 bf 9b b7 97 be
       -0.5535613 1.4134583 -0.53383744 -0.29632267
000100 12 4e 08 bf 19 58 76 3f 53 81 ee be d3 a8 85 be
       -0.53244126 0.96228176 -0.46583042 -0.26105365
000110 88 4b c9 be 83 ea 23 bf f2 6b 8f 3e c6 ed 4d bf
       -0.39315438 -0.6402971 0.28012043 -0.8044094
000120 34 69 bd be 87 70 b1 3e 82 80 54 bd ee 49 43 be
       -0.36994326 0.34656164 -0.051880367 -0.1907117
000130 5a f6 8b 3f 85 36 16 bf f3 f5 e3 be ad 75 99 be
       1.0934556 -0.5867694 -0.44523582 -0.29972592
000140 f3 57 55 bf a7 5b c4 be c3 36 df be 55 25 a4 3d
       -0.83337325 -0.38351175 -0.43596467 0.08014933
000150 a9 bc 67 bf 85 d7 f2 be 47 6f 70 3e 94 5a 90 be
       -0.9052225 -0.47430053 0.23479949 -0.28194106
000160 3e 15 15 bf 43 80 17 bf 24 e0 8b 3f dd 21 32 be
       -0.5823554 -0.59180087 1.0927777 -0.1739573
000170 2f d2 8f 3e 92 14 3a bf 33 26 31 be 3c 87 09 bf
       0.28090045 -0.7268764 -0.17299728 -0.53721976
000180 d5 5c 0d be 8b 2f 66 bd 26 4f 03 bf 61 b2 cc 3e
       -0.13804944 -0.056197684 -0.51292646 0.39979842
000190 c0 0e e5 be 3d 07 f1 be 52 4f cb be 10 1d 90 bc
       -0.44737816 -0.47075835 -0.39708954 -0.017591983
0001a0 72 64 5f bf e3 b0 18 bf 00 d1 98 bd de 28 90 be
       -0.8726264 -0.5964491 -0.074617386 -0.2815618
0001b0 f2 37 24 bf fe 74 02 bf 47 40 85 be 01 1b 18 3e
       -0.64147866 -0.50959766 -0.26025602 0.14854051
0001c0 ea 8c af be e1 f4 d0 be b2 9d a3 be 97 9f f1 bd
       -0.34287196 -0.40811828 -0.3195625 -0.117980175
0001d0 76 84 06 bf c2 a1 af be f7 8b b0 3e 26 09 e8 be
       -0.5254587 -0.343031 0.34481785 -0.4531948
0001e0 9b be fc be 23 99 6c bf 5e 78 60 bf bf 78 78 bf
       -0.4936417 -0.9242117 -0.87683666 -0.97059244
0001f0 b3 55 9b be bf 65 48 be 07 5b 4f be 58 5e 59 be
       -0.3033882 -0.19570063 -0.20249568 -0.21227396
000200 39 09 2e bf 88 bc 06 be 2f 79 50 be f1 00 e5 bd
       -0.6798282 -0.13157856 -0.20358728 -0.1118182
000210 5c f3 b7 be 3c b8 80 be 4b bf 49 bf f8 fe 1a bf
       -0.35927856 -0.2514056 -0.78807515 -0.605453
000220 8e d4 56 bf 02 36 5a bf fd ec 7e be 79 7f 44 bf
       -0.8391808 -0.8523866 -0.24895091 -0.7675701
000230 26 af e4 3e d3 f7 69 bf eb 8e 68 3d b8 f6 49 bf
       0.44664878 -0.91393775 0.056776922 -0.7889209
000240 de 18 25 be a1 4b 04 bf 21 34 7d 3e 24 34 1a bf
       -0.16122767 -0.516779 0.24726917 -0.6023581
000250 87 49 ad be 56 41 05 bd f8 00 26 be 2c 6f 1d be
       -0.3384516 -0.032533012 -0.16211307 -0.1537444
000260 b6 44 83 bd be 13 f5 bd 54 b0 45 bf 64 c3 07 bf
       -0.0640959 -0.11966656 -0.7722218 -0.5303252
000270 0e e2 06 bf b4 1b 4d bf 1c b7 2f bf af 64 05 bf
       -0.5268868 -0.80120397 -0.6863878 -0.52106756
000280 e7 41 fb 3e 71 b6 16 3f 7b f6 01 bf 09 b4 6f 3e
       0.49073717 0.58872133 -0.50766724 0.23408522
000290 e4 c8 8b be ca 50 04 bf 13 da 9b be c4 07 b5 be
       -0.27301705 -0.51685774 -0.30439815 -0.35357487
0002a0 0d 1f 31 be 6b b5 30 3d 7d 73 c6 bd 8c c6 50 bf
       -0.17297001 0.043141764 -0.096899964 -0.8155296
0002b0 1c 88 13 bf a8 72 18 be 5e b5 db be d2 39 e2 3e
       -0.5762956 -0.14887488 -0.4291181 0.44184738
0002c0 1e 90 d3 be 69 2b e9 be 07 7b e8 be d3 56 32 be
       -0.4132089 -0.45540932 -0.45406362 -0.17415933
0002d0 65 39 cc be 7a a6 cf bc dc dd 29 3f 49 c0 9c be
       -0.3988754 -0.025347937 0.66354156 -0.30615452
0002e0 10 30 41 be 50 3a 89 be 9a b4 16 bf 0f fa 10 bf
       -0.1886599 -0.268023 -0.58869326 -0.5663156
0002f0 c4 a4 10 bf f4 7a 8b 3f 47 56 0b bf b5 c0 a8 be
       -0.5650141 1.0896897 -0.54428524 -0.32959524
000300 ac cc 1d bf e9 34 52 3f e1 94 22 bf b6 dc 86 be
       -0.6164043 0.82111984 -0.6350842 -0.26340264
000310 79 60 0d bf 0b 49 25 bf a4 82 38 3e c9 b4 5b bf
       -0.5522533 -0.6456458 0.18018585 -0.8582273
000320 f6 7d ad be 2e 8e 95 3e 14 9d 6a be 26 2d c2 be
       -0.33885163 0.29210037 -0.22911483 -0.3792507
000330 c7 8d 47 3f b5 38 fb be e2 6b d4 be 8d e6 b3 be
       0.7795071 -0.49066702 -0.41488558 -0.35136834
000340 c0 55 4f bf d9 17 0d bf 2f 7c df be 5a 3b c2 bb
       -0.8099022 -0.55114514 -0.43649432 -0.0059274854
000350 5b 67 6e bf ce 3b f9 be c0 58 68 3e 1f c0 f0 be
       -0.9312646 -0.4867844 0.22690105 -0.47021577
000360 e6 1b 12 bf a6 2c 1a bf 77 1c 5e 3f de a0 e2 bd
       -0.5707382 -0.6022438 0.86762184 -0.11065839
000370 ee a7 e1 3b 59 70 3d bf b2 86 a3 be 26 82 15 bf
       0.006886474 -0.73999554 -0.31938702 -0.58401716
000380 1a 64 9b be c3 10 95 bd a7 05 0c bf e7 b4 bf 3d
       -0.3034981 -0.07278588 -0.54696125 0.09360676
000390 c2 2c 0e bf 7b 02 03 bf b1 13 13 bf 5e 00 32 be
       -0.55537045 -0.5117566 -0.5745192 -0.17382953
0003a0 14 6a 62 bf d1 2d 17 bf 2e a0 7a be e3 a6 73 be
       -0.8844311 -0.59054285 -0.24475166 -0.23794131
0003b0 f5 b9 29 bf 40 82 1a bf 06 a7 da be 38 09 30 3e
       -0.6629937 -0.60354996 -0.42705554 0.17191017
0003c0 39 f8 ad be b1 70 06 bf f9 39 cb be 13 10 a8 bd
       -0.3397844 -0.52515703 -0.39692667 -0.08206191
0003d0 b8 f9 1b bf 32 4a 27 bf 7b 0c 83 3e a1 6a 0e bf
       -0.60927916 -0.6534759 0.2559546 -0.5563145
0003e0 4b 5b 00 bf 4e 83 6d bf 75 64 64 bf 62 7a 7f bf
       -0.501393 -0.9277848 -0.89215785 -0.99796116
0003f0 ac a6 a0 be 74 38 b4 be 1f 3e 9e be 6e ef 98 be
       -0.3137716 -0.3519932 -0.3090677 -0.2987017
